DQN-2048/2048_dqn_model.pth (torch, 555662 bytes, 6 tensors)

fc1.weight f4 [256, 17]
-10.217974 -11.717798 -14.494569 0.36829785 -3.8523164 -18.36352 -7.992988 -11.772211
-2.5142543 -0.7568702 -7.939252 -0.11593229 -4.8481307 1.3209281 1.9040155 -0.23126556
-2.1743324 19.501095 -16.614344 5.5219793 -8.398879 -33.065357 3.2352962 0.9985422
6.4629097 3.0995357 -3.8581407 -28.147045 -19.858767 -18.529377 -40.761566 1.0832467
-29.954958 0.66548216 -18.08635 4.979295 -8.070811 -1.2796383 -12.4558 -28.678923
-2.4499881 -27.285679 3.384967 7.6026607 1.6575457 0.2312131 12.563351 16.080294
16.044043 14.385195 0.43382302 16.016897 0.24782386 -15.853286 -30.948172 -1.0950555
-0.48317432 1.7049758 4.867301 12.214815 -0.45792046 -10.048446 9.308231 10.858457
11.633912 -5.385276 12.890058 -1.6870644 -0.120535515 -0.101842515 0.039637763 -0.09850947
-0.13789672 -0.2425246 0.0050922995 -0.18126354 -0.2072845 0.023789147 -0.2362976 -0.086379446
-0.24648933 0.0069867643 0.034720145 -0.08559006 -0.4823654 -18.03502 -48.47967 -17.575003
-11.024603 12.222984 1.0414348 0.8894987 -5.980062 0.36704463 1.734511 3.9174504
12.105239 -21.218365 5.4568024 2.1667457 7.437329 0.24483334 10.266657 1.400109
-35.78451 10.879138 -8.312068 2.4339263 -6.6527977 -11.975571 -4.7948055 5.8584003
-2.785872 -23.236929 16.210302 9.31519 8.517886 -6.4827 2.2567904 -30.447618
-12.7326765 8.796994 1.9810699 1.627701 4.7125006 -9.734104 4.8109126 11.342949
0.77562416 6.008347 21.2608 -16.222797 -10.266328 5.891361 7.789354 0.48956776
1.8243581 -3.0617833 4.702224 -17.974539 24.2033 6.4276547 5.6279473 -30.76204
10.130947 7.9961724 -5.194866 -30.40914 -8.846792 4.235634 4.641711 -16.813162
2.753647 -34.121353 -3.944152 -8.3515625 -24.921484 1.9032357 6.7542634 -8.274096
-0.6340661 -6.432509 7.792262 3.211475 23.262943 2.6569252 0.69637185 -31.081766
-5.58378 1.6623819 21.956213 7.4851594 0.41665056 -1.6363648 17.245129 -21.691927
1.8385336 -7.070686 9.896985 7.6350555 6.0175457 -12.209665 3.7950337 -9.055473
2.997552 -23.2901 -1.745972 -29.985508 10.844669 0.26001257 7.651428 15.880696
-0.51967484 1.4892946 1.1766448 -9.131609 5.8707557 4.441604 3.8015342 8.407788
-14.3293915 3.2440872 -61.576935 -0.5093823 18.25663 18.104834 15.120109 -15.249219
13.536992 2.0482259 7.4027276 3.0335138 -46.356754 -16.105711 1.1755624 4.9102435
-23.95617 8.791244 -0.05271993 -9.634531 -0.6634681 -4.219714 4.7846246 4.9042172
-20.979652 6.0818143 12.536363 0.85867625 -13.546442 -19.287653 -31.377155 -0.60798633
-4.566227 -24.074982 -53.16325 -7.5365605 -13.280915 0.51449585 17.186386 11.910005
1.5836204 1.4597616 -32.85888 -9.519323 9.177182 11.695764 -28.276869 -2.5756598
-6.794377 -5.0239706 -26.916973 -22.384024 -9.955135 31.584524 4.0729766 -9.930522
00000000: d27c 23c1 1a7c 3bc1 c1e9 67c1 8991 bc3e
00000010: 5a8c 76c0 7de8 92c1 8fc6 ffc0 fa5a 3cc1
00000020: 8be9 20c0 3fc2 41bf 5a0e fec0 e96d edbd
00000030: e323 9bc0 2c14 a93f c8b6 f33f e1d0 6cbe
00000040: 4328 0bc0 3e02 9c41 2dea 84c1 0eb4 b040
00000050: cf61 06c1 ed42 04c2 180f 4f40 76a0 7f3f
00000060: 28d0 ce40 cb5e 4640 c7eb 76c0 262d e1c1
00000070: c1de 9ec1 2a3c 94c1 d80b 23c2 d4a7 8a3f
00000080: c1a3 efc1 0a5d 2a3f d8b0 90c1 6256 9f40
00000090: 0b22 01c1 30cb a3bf f54a 47c1 6f6e e5c1
000000a0: 9bcc 1cc0 1249 dac1 4da3 5840 ff48 f340
000000b0: 752a d43f 20c3 6c3e 7c03 4941 71a4 8041
000000c0: 335a 8041 c229 6641 0d1e de3e 9b22 8041
000000d0: 8ac5 7d3e 0fa7 7dc1 db95 f7c1 c72a 8cbf
000000e0: a062 f7be a63c da3f eec0 9b40 e26f 4341
000000f0: 8d74 eabe 6fc6 20c1 84ee 1441 3dbc 2d41
00000100: 8124 3a41 2e54 acc0 ad3d 4e41 baf1 d7bf
00000110: 53db f6bd cf92 d0bd 355b 223d 55bf c9bd
00000120: cc34 0dbe 5e58 78be 4edd a63b 269d 39be
00000130: 6342 54be 75e1 c23c 00f8 71be b5e7 b0bd
00000140: b367 7cbe 3af1 e43b b636 0e3d d749 afbd
00000150: 99f8 f6be b947 90c1 2feb 41c2 9b99 8cc1
00000160: c664 30c1 5891 4341 bc4d 853f 30b6 633f
00000170: ab5c bfc0 46ed bb3e 7504 de3f 82b7 7a40
00000180: 0faf 4141 36bf a9c1 209e ae40 f6ab 0a40
00000190: 99fe ed40 97b5 7a3e 3a44 2441 c636 b33f
000001a0: 5723 0fc2 f310 2e41 3bfe 04c1 73c5 1b40
000001b0: b8e3 d4c0 f09b 3fc1 0c6f 99c0 0478 bb40
000001c0: ba4b 32c0 3be5 b9c1 b3ae 8141 050b 1541
000001d0: 4349 0841 4772 cfc0 416f 1040 b994 f3c1
000001e0: 0bb9 4bc1 7dc0 0c41 b393 fd3f 8258 d03f
000001f0: cecc 9640 e4be 1bc1 fff2 9940 b87c 3541
00000200: 4e8f 463f 6144 c040 1e16 aa41 4ac8 81c1
00000210: e142 24c1 0886 bc40 6342 f940 a0a8 fa3e
00000220: 9184 e93f 42f4 43c0 9e78 9640 dbcb 8fc1
00000230: 5ca0 c141 59af cd40 2518 b440 a818 f6c1
00000240: 5c18 2241 a5e0 ff40 583c a6c0 eb45 f3c1
00000250: 768c 0dc1 508a 8740 e688 9440 5b81 86c1
00000260: c13b 3040 447c 08c2 fd6c 7cc0 00a0 05c1
00000270: 335f c7c1 3a9d f33f ed22 d840 b262 04c1
00000280: 2852 22bf 1dd7 cdc0 365a f940 ce88 4d40
00000290: 821a ba41 100b 2a40 6d45 323f 75a7 f8c1
000002a0: 53ae b2c0 eec8 d43f 53a6 af41 6d86 ef40
000002b0: 3953 d53e 6774 d1bf 06f6 8941 1189 adc1
000002c0: 1255 eb3f 0f43 e2c0 0d5a 1e41 6052 f440
000002d0: bc8f c040 ca5a 43c1 d5e1 7240 38e3 10c1
000002e0: e4d7 3f40 2052 bac1 037c dfbf 52e2 efc1
000002f0: c483 2d41 5e20 853e 80d8 f440 5517 7e41
00000300: 6909 05bf 35a1 be3f 4c9c 963f 121b 12c1
00000310: 3bdd bb40 9f21 8e40 564c 7340 4d86 0641
00000320: 3045 65c1 209f 4f40 c84e 76c2 e166 02bf
00000330: 940d 9241 b3d6 9041 f7eb 7141 cdfc 73c1
00000340: 8597 5841 2216 0340 25e3 ec40 1725 4240
00000350: 516d 39c2 7fd8 80c1 d478 963f b720 9d40
00000360: 3ca6 bfc1 efa8 0c41 daf0 57bd 0a27 1ac1
00000370: 0cd9 29bf e607 87c0 a51b 9940 59ef 9c40
00000380: 54d6 a7c1 399e c240 f194 4841 35d2 5b3f
00000390: 3abe 58c1 1d4d 9ac1 6a04 fbc1 fea4 1bbf
000003a0: 881e 92c0 9099 c0c1 2ba7 54c2 812b f1c0
000003b0: a17e 54c1 00b6 033f b87d 8941 618f 3e41
000003c0: 13b4 ca3f 78d9 ba3f 7e6f 03c2 264f 18c1
000003d0: bdd5 1241 d921 3b41 0737 e2c1 9cd7 24c0
000003e0: 896b d9c0 5ec4 a0c0 f655 d7c1 7b12 b3c1
000003f0: 3c48 1fc1 1bad fc41 d355 8240 6be3 1ec1

fc1.bias f4 [256]
-11.426575 -16.797642 -8.412623 74.91529 -0.10561967 26.538338 -13.769117 -1.9600593
-0.5011946 -4.8845706 -23.95527 -12.232095 4.1976132 -9.035993 -22.648418 7.489771
7.4693127 24.831726 -6.4375315 53.457428 -7.787254 -0.5117442 -31.999403 11.049952
13.607188 -17.607773 -6.692507 -12.235806 -5.574111 13.645403 -6.3821387 11.068156
-5.9690027 11.237595 -1.1513289 23.491386 50.822548 -14.299632 -7.392919 35.791092
22.021921 -11.865403 -0.34253445 10.451018 8.794975 -9.698615 -36.272877 23.231728
-0.13104403 -21.076925 -9.405513 3.2541692 10.982768 -11.84096 14.367484 22.648056
16.35144 -24.520681 -0.07521898 -0.635473 49.307987 -0.18028435 1.4906082 -11.980061
49.753834 -21.173864 -5.524501 72.286285 -0.1291765 -3.0276036 -0.8466555 29.829296
20.962307 22.120245 1.6489748 -13.000599 -16.005688 24.917088 93.533936 26.299906
-0.5656854 0.6934055 -4.277282 -7.3907886 -15.627237 12.256813 2.1094475 55.019344
-12.186714 47.26715 25.71006 -10.406269 41.55315 -23.069578 13.200791 3.1414168
-0.47132382 37.712048 6.3993287 13.058812 20.565348 59.153404 35.965508 13.2060995
40.65788 39.66773 -0.16096215 42.393284 -5.7674 2.1298113 -5.26434 4.6821375
30.116192 24.536215 6.636853 11.344021 -2.5443327 0.05249409 -10.257863 59.310806
3.21243 11.169008 -15.492253 -6.7321124 6.7491183 -8.204207 85.39774 -9.844782
-4.5793695 6.374351 -34.778694 3.7627149 38.166504 -25.338087 41.76378 23.229916
-4.836883 74.46646 -9.909601 -3.146771 8.861796 -8.269126 -0.91520405 15.848016
14.088555 21.466496 25.113907 -12.27121 20.617981 -10.551699 -29.94916 -8.717224
-22.912739 35.78882 -1.8530072 -12.280036 18.84316 -25.30707 83.37323 8.927767
15.896817 0.7857411 30.162457 73.478584 16.682133 -54.709976 -4.131375 -7.032895
-13.369469 9.3944025 -40.943016 6.4496307 35.966698 42.796364 12.529413 7.3249326
63.716072 -0.8285729 -22.575935 35.582413 12.195937 3.8468106 -19.436483 -10.425959
-0.47507942 -2.7047646 -9.907553 -7.7181044 23.303953 -5.860805 -0.08634831 22.21254
-19.9804 25.749146 -9.936006 18.094059 -29.52414 -11.427831 50.67794 -16.52099
-18.144361 0.09614219 -15.714551 -35.385914 -0.5757393 3.0294087 56.769764 -1.5497293
-2.3161714 1.6817446 -0.16755606 23.714287 3.5195131 10.160332 5.7121005 13.480924
-24.624113 -8.809055 -3.7741597 -0.13549612 -7.999157 -16.450283 57.43545 9.163928
-24.677023 -14.671936 -20.505604 -19.38974 15.028561 0.121207885 66.06426 25.225817
9.046448 -15.475537 -2.5159247 -10.869969 13.581655 10.117198 -10.016679 18.385113
32.49225 -4.7191396 -5.4283285 5.214807 45.76948 45.17647 -29.350563 12.746235
30.368402 -19.18834 56.790707 48.449955 -3.5728865 40.024536 -10.484903 10.731553
00000000: 40d3 36c1 9261 86c1 1b9a 06c1 a1d4 9542
00000010: 204f d8bd 844e d441 4e4e 5cc1 39e3 fabf
00000020: 4a4e 00bf 674e 9cc0 65a4 bfc1 a9b6 43c1
00000030: d952 8640 6d93 10c1 f62f b5c1 34ac ef40
00000040: 9c04 ef40 60a7 c641 4200 cec0 68d4 5542
00000050: 2f31 f9c0 ab01 03bf c7fe ffc1 9acc 3041
00000060: 0bb7 5941 b8dc 8cc1 0429 d6c0 ddc5 43c1
00000070: 1e5f b2c0 9253 5a41 7b3a ccc0 2b17 3141
00000080: 1202 bfc0 30cd 3341 bf5e 93bf 5cee bb41
00000090: 4a4a 4b42 4bcb 64c1 cb92 ecc0 142a 0f42
000000a0: e52c b041 b1d8 3dc1 ad60 afbe 5f37 2741
000000b0: 38b8 0c41 872d 1bc1 6d17 11c2 94da b941
000000c0: 6830 06be 8b9d a8c1 fb7c 16c1 4f44 5040
000000d0: 6bb9 2f41 9274 3dc1 37e1 6541 382f b541
000000e0: c0cf 8241 5b2a c4c1 690c 9abd 5cae 22bf
000000f0: 613b 4542 769c 38be 40cc be3f 54ae 3fc1
00000100: ed03 4742 1364 a9c1 b6c8 b0c0 9492 9042
00000110: d846 04be 42c4 41c0 6abe 58bf 66a2 ee41
00000120: ceb2 a741 43f6 b041 9b11 d33f 7402 50c1
00000130: a60b 80c1 3256 c741 6011 bb42 3566 d241
00000140: c2d0 10bf 0683 313f 7fdf 88c0 5781 ecc0
00000150: 2a09 7ac1 e81b 4441 3001 0740 cf13 5c42
00000160: c8fc 42c1 9011 3d42 34ae cd41 1480 26c1
00000170: 6d36 2642 7f8e b8c1 7136 5341 f90c 4940
00000180: 5b51 f1be 23d9 1642 4dc7 cc40 e5f0 5041
00000190: d585 a441 169d 6c42 aedc 0f42 2f4c 5341
000001a0: aba1 2242 c1ab 1e42 43d3 24be b992 2942
000001b0: 8a8e b8c0 d44e 0840 7975 a8c0 12d4 9540
000001c0: f6ed f041 2b4a c441 1a61 d440 1c81 3541
000001d0: 59d6 22c0 0b04 573d 3520 24c1 443e 6d42
000001e0: 7498 4d40 42b4 3241 45e0 77c1 776d d7c0
000001f0: c7f8 d740 6f44 03c1 a5cb aa42 3a84 1dc1
00000200: 328a 92c0 affa cb40 621d 0bc2 52d0 7040
00000210: 80aa 1842 67b4 cac1 1c0e 2742 ded6 b941
00000220: bfc7 9ac0 d4ee 9442 ba8d 1ec1 b264 49c0
00000230: ebc9 0d41 574e 04c1 d04a 6abf 7991 7d41
00000240: b96a 6141 62bb ab41 48e9 c841 e056 44c1
00000250: a0f1 a441 c2d3 28c1 e197 efc1 c079 0bc1
00000260: 4a4d b7c1 c027 0f42 572f edbf 077b 44c1
00000270: cbbe 9641 e174 cac1 18bf a642 22d8 0e41
00000280: 5d59 7e41 5426 493f b64c f141 09f5 9242
00000290: 0275 8541 04d7 5ac2 3934 84c0 7a0d e1c0
000002a0: 58e9 55c1 794f 1641 a6c5 23c2 6063 ce40
000002b0: e6dd 0f42 7a2f 2b42 7a78 4841 d965 ea40
000002c0: 42dd 7e42 5b1d 54bf 849b b4c1 6454 0e42
000002d0: 8f22 4341 2532 7640 eb7d 9bc1 bad0 26c1
000002e0: 9c3d f3be dd1a 2dc0 5685 1ec1 b6fa f6c0
000002f0: 7f6e ba41 b78b bbc0 62d7 b0bd 48b3 b141
00000300: dcd7 9fc1 40fe cd41 e1f9 1ec1 a2c0 9041
00000310: 7031 ecc1 65d8 36c1 36b6 4a42 fd2a 84c1
00000320: a727 91c1 32e6 c43d cd6e 7bc1 2d8b 0dc2
00000330: a763 13bf d5e1 4140 3d14 6342 885d c6bf
00000340: 273c 14c0 6843 d73f d193 2bbe dcb6 bd41
00000350: b43f 6140 b890 2241 87c9 b640 ddb1 5741
00000360: 2ffe c4c1 e4f1 0cc1 d58b 71c0 7fbf 0abe
00000370: 18f9 ffc0 2e9a 83c1 e7bd 6542 739f 1241
00000380: 8b6a c5c1 40c0 6ac1 7a0b a4c1 301e 9bc1
00000390: fc74 7041 d73b f83d e720 8442 79ce c941
000003a0: 40be 1041 cd9b 77c1 e904 21c0 65eb 2dc1
000003b0: 754e 5941 0be0 2141 5144 20c1 b614 9341
000003c0: 10f8 0142 3103 97c0 deb4 adc0 b3df a640
000003d0: f313 3742 b5b4 3442 f4cd eac1 94f0 4b41
000003e0: 7df2 f241 b881 99c1 af29 6342 c1cc 4142
000003f0: 2caa 64c0 2019 2042 2ac2 27c1 71b4 2b41

fc2.weight f4 [512, 256]
-0.08365585 0.13191016 -0.18670224 -0.14787666 -0.0323181 -0.18237858 -0.12210453 0.068563566
-0.27173275 -0.217264 -0.1136271 -0.13830759 0.078139335 -0.30268812 -0.23658687 0.14363216
0.035235956 -0.038655464 -0.143007 0.09712295 -0.14716844 -0.04417032 -0.09950048 -0.15997252
-0.31435114 0.010401285 -0.14140433 -0.17544472 -0.3050424 0.09013206 0.23333871 -0.13166709
0.018269219 0.030551123 0.024141619 -0.13014376 -0.3550522 0.08340513 -0.06773387 0.14701623
-0.20325735 0.08234903 0.028875465 -0.082816795 -0.016017402 -0.17516235 0.26900294 -0.35944495
-0.05935844 0.24254192 0.03729432 -0.42607182 0.01814346 -0.023823293 0.2348035 -0.021691568
-0.03502456 0.060445245 -0.021814063 0.057488855 -0.07140144 0.046397164 -0.3369185 -0.1871211
-0.013400459 0.049261864 0.039223388 -0.048557494 -0.036094587 -0.19252571 -0.299156 -0.21207772
-0.22888501 -0.2959209 -0.1833703 -0.09908972 -0.19723313 -0.14422743 -0.039765414 0.020533312
-0.2746344 0.26035747 -0.20904298 0.030837031 -0.1559243 -0.26792595 0.07586337 -0.047048997
-0.12272023 0.124925785 -0.54030454 0.11003476 -0.21767022 -0.31393284 -0.046166595 -0.15897958
0.022250466 0.128349 -0.08465764 -0.12273558 -0.21566734 -0.057627894 -0.073228896 0.20498353
-0.1499472 -0.008896841 -0.41536897 -0.13657197 -0.3999745 -0.078087986 -0.068037674 0.060778823
-0.0070782844 -0.0025462378 -0.32857832 -0.16399665 0.08567355 -0.05438757 0.022207715 -0.34053284
-0.04326408 -0.0891873 -0.13188857 0.010409709 -0.1262473 0.23108017 -0.13620846 -0.016504854
-0.26834443 0.06106697 0.26446807 -0.2824229 0.22278473 -0.21857561 -0.4349609 0.01566675
0.07553052 -0.13059482 -0.02471613 0.11570248 -0.09775626 -0.3263791 0.0128558865 -0.19291957
-0.16547127 0.10378439 -0.10567363 -0.19966632 -0.15426922 -0.42668006 0.12899691 -0.24481532
-0.22424689 -0.3148809 -0.28465164 -0.20609733 -0.1348445 -0.17982529 -0.25225204 -0.317933
-0.019712055 -0.15229742 -0.3268563 -0.099051915 -0.25809866 0.0990386 -0.14716731 -0.12824203
-0.029086025 0.10027284 -0.045822106 -0.06167029 -0.06399093 -0.2022175 0.025098735 0.07326651
-0.51184577 0.023784492 -0.12675722 0.012557966 -0.1542161 -0.26471984 -0.5384792 -0.0025180299
0.03839098 -0.2514988 -0.059230488 -0.30875465 -0.0721833 0.17795217 0.053704105 0.03044926
-0.11069632 0.03737993 -0.19543517 0.030765928 -0.26375753 -0.071847275 -0.21542768 -0.13088395
-0.097078234 -0.03844887 -0.046950724 -0.2381686 -0.0717133 -0.27460316 0.23420271 -0.025891807
-0.01269413 -0.20758682 -0.19572979 0.02797041 0.113522865 -0.42768744 -0.39315918 0.08057215
-0.21222508 0.13014762 -0.10947131 0.013431266 -0.21099353 -0.18942624 -0.223508 -0.031606533
0.0767434 -0.062593564 -0.17652053 -0.0036767656 0.007643975 -0.04826749 -0.29664493 -0.18025288
-0.16501671 -0.59309906 -0.25502926 -0.025216203 -0.5731921 0.06053352 -0.33902955 0.08082166
-0.07476836 -0.44405374 -0.024176346 0.06476854 0.20110388 -0.19534323 0.0031228075 -0.5177672
0.09371547 -0.24579106 -0.22492485 -0.18637556 -0.2365025 -0.21697864 0.06728867 -0.091117136
00000000: c253 abbd 7513 073e df2e 3fbe fb6c 17be
00000010: fc5f 04bd 73c1 3abe f111 fabd 0e6b 8c3d
00000020: 8e20 8bbe 747a 5ebe 53b5 e8bd 81a0 0dbe
00000030: 8407 a03d f0f9 9abe d443 72be 4f14 133e
00000040: 9453 103d 3155 1ebd 6d70 12be 66e8 c63d
00000050: 53b3 16be f0eb 34bd e8c6 cbbd d6cf 23be
00000060: a2f2 a0be 276a 2a3c 4ccc 10be c8a7 33be
00000070: 842e 9cbe 2897 b83d 58f0 6e3e bdd3 06be
00000080: 54a9 953c 5946 fa3c a5c4 c53c 6844 05be
00000090: 67c9 b5be 4fd0 aa3d 0eb8 8abd 6c8b 163e
000000a0: b222 50be 9ca6 a83d 3d8c ec3c da9b a9bd
000000b0: ed36 83bc c25d 33be c1ba 893e 2b09 b8be
000000c0: d621 73bd e95c 783e eec1 183d 1626 dabe
000000d0: 98a1 943c 1129 c3bc 5470 703e 84b2 b1bc
000000e0: ea75 0fbd 6f95 773d 68b3 b2bc 6f79 6b3d
000000f0: eb3a 92bd f40a 3e3d 9580 acbe ac9c 3fbe
00000100: 998d 5bbc cfc6 493d b4a8 203d 39e4 46bd
00000110: ebd7 13bd 7625 45be fa2a 99be e72a 59be
00000120: d560 6abe f282 97be 6dc5 3bbe 8def cabd
00000130: 7bf7 49be 5bb0 13be 0fe1 22bd 7a35 a83c
00000140: e19c 8cbe 934d 853e 5d0f 56be f19d fc3c
00000150: 9faa 1fbe 972d 89be 415e 9b3d 73b6 40bd
00000160: be54 fbbd 17d9 ff3d 6651 0abf e759 e13d
00000170: f1e4 5ebe cebb a0be 2f19 3dbd 8bcb 22be
00000180: 9c46 b63c ec6d 033e fc60 adbd cb5c fbbd
00000190: e6d7 5cbe 3a0b 6cbd 08f9 95bd 34e7 513e
000001a0: c28b 19be 0ec4 11bc 3eab d4be 86d9 0bbe
000001b0: 75c9 ccbe 98ec 9fbd 5657 8bbd 37f3 783d
000001c0: f4f0 e7bb c8de 26bb 6b3b a8be bdee 27be
000001d0: 9d75 af3d 80c5 5ebd f4ec b53c 525a aebe
000001e0: ad35 31bd d5a7 b6bd cc0d 07be 7c8d 2a3c
000001f0: f946 01be 48a0 6c3e 3b7a 0bbe 3035 87bc
00000200: 7164 89be 5c21 7a3d 5c68 873e bc99 90be
00000210: ae21 643e 49d2 5fbe 32b3 debe 8e57 803c
00000220: bfaf 9a3d a6ba 05be 7b79 cabc 6cf5 ec3d
00000230: 6f34 c8bd 291b a7be 7fa1 523c b58c 45be
00000240: 4d71 29be e98c d43d 6b6b d8bd 5475 4cbe
00000250: c0f8 1dbe cf75 dabe c417 043e deb0 7abe
00000260: faa0 65be 1238 a1be dcbd 91be 2e0b 53be
00000270: ad14 0abe 1f24 38be 2e27 81be 1dc8 a2be
00000280: 2d7b a1bc dbf3 1bbe b559 a7be bbdb cabd
00000290: 8225 84be c0d4 ca3d 07b3 16be e151 03be
000002a0: d145 eebc d95b cd3d f6af 3bbd fc99 7cbd
000002b0: ad0d 83bd 1b12 4fbe dd9b cd3c c10c 963d
000002c0: 5308 03bf b2d7 c23c a5cc 01be edbf 4d3c
000002d0: d3ea 1dbe 5c89 87be c6d9 09bf 8805 25bb
000002e0: dc3f 1d3d 73c4 80be ab9b 72bd 1715 9ebe
000002f0: d7d4 93bd 1839 363e d6f8 5b3d ba70 f93c
00000300: c1b4 e2bd b31b 193d 2820 48be d408 fc3c
00000310: 3a0b 87be aa24 93bd 1399 5cbe 7106 06be
00000320: f4d0 c6bd 907c 1dbd 674f 40bd 78e2 73be
00000330: 6cde 92bd c998 8cbe d6d2 6f3e 0e1b d4bc
00000340: 0afb 4fbc a491 54be 646d 48be 3422 e53c
00000350: ad7e e83d d9f9 dabe 294c c9be 0303 a53d
00000360: 8851 59be 6b45 053e 7f32 e0bd d00e 5c3c
00000370: b00e 58be f4f8 41be 48df 64be da75 01bd
00000380: a52b 9d3d 0e31 80bd ccc1 34be e4f5 70bb
00000390: 4f7a fa3b 22b4 45bd d8e1 97be 3694 38be
000003a0: 24fa 28be 57d5 17bf 3293 82be 3692 cebc
000003b0: b8bc 12bf fff1 773d 4895 adbe d485 a53d
000003c0: 2720 99bd 035b e3be 790d c6bc 5ea5 843d
000003d0: 2dee 4d3e 0e08 48be 04a8 4c3b 648c 04bf
000003e0: e5ed bf3d a7b0 7bbe b352 66be 3cd9 3ebe
000003f0: b62d 72be a62f 5ebe a4ce 893d 9f9b babd

fc2.bias f4 [512]
-0.2875426 0.79800993 0.9456674 -0.10284188 0.0059485273 10.43477 3.504767 -0.08417199
-0.22394568 -0.31780306 -2.6761334 0.019156866 0.02067366 0.6369545 3.069604 6.2751927
-0.25583103 -0.15442422 -0.2744941 -0.4934707 -0.24591105 46.45519 -0.6778797 -0.23472954
-2.6149838 15.120333 1.3344812 31.750908 3.6061704 -0.14425893 -0.13917038 0.7261561
22.004387 -0.5882165 5.2367496 -0.019390443 3.0007508 -0.45158866 -0.0093236845 16.294481
-0.32378417 -0.16282853 -0.23126481 -0.2617498 0.88881373 4.059059 -0.18458442 1.8082969
14.090732 -0.41646785 -0.2541328 0.0042766044 -0.16959573 14.386619 19.325565 8.410931
-2.7701213 -0.16151677 -0.16188641 13.916791 0.2833201 -0.19701202 -0.04382528 -0.15650295
1.4523455 -0.131332 -0.15052022 4.368451 0.20508161 -0.16636288 7.1698 -0.2446309
-0.23575218 -0.18573889 -0.058957126 -0.07637691 3.429602 -0.2579039 -10.17773 47.037888
-0.50907826 13.261198 -0.0099477405 3.8271017 -0.15087561 -0.22921747 -0.043177452 -1.884214
-0.43883005 20.14428 87.07346 -0.10728414 26.034023 -0.38281402 -0.081388615 -1.7660942
16.874638 -0.1638077 0.6448221 -0.13695863 -0.03692831 0.025974913 -0.28801438 -0.040594958
7.031611 -0.21576665 -0.18956842 -0.0013739537 6.0790873 0.7965353 -0.09558305 -0.066640824
-0.37283427 -0.13899016 -0.18633792 16.418892 2.38828 -0.25952443 95.48111 9.495296
-0.058856986 -0.20827638 -0.14518984 10.220879 -0.1772945 -0.29201323 11.517945 0.5660054
5.9723516 26.408148 -0.17326833 -0.05632997 -0.14416277 -0.30213588 -0.15608345 -0.11240076
2.1417341 21.935143 -1.6381885 10.489653 1.3453411 -0.109173946 -0.10939882 -0.16239537
-0.20771013 -0.267688 -0.22608306 7.943643 25.900831 -0.16469103 -0.12491142 1.557163
-0.21377057 -0.30124965 -0.3863327 2.1533103 -0.18773283 -0.3387171 -0.18886693 13.546789
1.1004584 -0.24730253 30.664785 4.175986 -0.020953815 -0.26477203 9.613191 -0.07180795
1.1929495 0.015046467 9.454361 -0.16203614 9.950919 5.846478 67.53488 -1.1086063
10.8025255 -0.059189193 -0.17163138 10.246252 13.73289 0.4117487 -0.18575282 90.70981
-0.117019236 12.078526 16.10762 -0.30817994 28.760683 -0.02389386 6.4973106 -0.20551936
18.749828 -0.20933393 -0.10505185 8.201309 -0.34323868 -0.4333002 21.703386 3.2890716
-0.07814591 -0.19758129 2.572173 3.1674933 -0.16305035 2.1884983 1.9581064 15.087873
-0.009941398 -0.23512815 -0.08962789 -0.18349501 0.94816154 -5.437838 -0.15865326 -0.4133349
-0.23292083 -0.20924543 -0.04183229 3.2378852 -0.35609517 18.216406 -0.18033865 -0.10925791
25.797012 10.413097 12.566645 -0.0729577 44.11267 -4.0999146 -0.17405963 -0.030478029
14.709801 12.434707 -0.30242282 -0.12331583 8.12286 -0.19961102 12.948673 -0.09035171
-0.24976656 14.561375 2.1203904 -0.24698211 0.015764536 -0.4170019 -0.1629464 1.7490205
-0.030410197 -0.17705782 -0.28846622 -0.017377328 0.4549786 -0.076361135 27.325151 35.10719
00000000: c938 93be 614a 4c3f 4217 723f c39e d2bd
00000010: ddeb c23b d1f4 2641 1a4e 6040 5d62 acbd
00000020: 0452 65be 15b7 a2be c545 2bc0 dcee 9c3c
00000030: cf5b a93c 730f 233f 6474 4440 61ce c840
00000040: 49fc 82be 6221 1ebe 7e8a 8cbe 31a8 fcbe
00000050: 1bd0 7bbe 1dd2 3942 8689 2dbf f15c 70be
00000060: e55b 27c0 e2ec 7141 48d0 aa3f dc01 fe41
00000070: 7fcb 6640 9db8 13be ae82 0ebe 5ee5 393f
00000080: fc08 b041 5b95 16bf 7493 a740 b5d8 9ebc
00000090: 4d0c 4040 a136 e7be 5ec2 18bc 195b 8241
000000a0: 0ac7 a5be 86bc 26be afd0 6cbe 1204 86be
000000b0: 4c89 633f d0e3 8140 b303 3dbe 4676 e73f
000000c0: a373 6141 463b d5be b21d 82be c222 8c3b
000000d0: 81aa 2dbe 972f 6641 c29a 9a41 2c93 0641
000000e0: ab49 31c0 a764 25be 8dc5 25be 2dab 5e41
000000f0: 550f 913e 85bd 49be 2382 33bd 4f42 20be
00000100: 75e6 b93f e57b 06be f921 1abe 5aca 8b40
00000110: ea00 523e 085b 2abe 006f e540 8680 7abe
00000120: 0569 71be 5632 3ebe 077d 71bd 7f6b 9cbd
00000130: 997e 5b40 fb0b 84be fbd7 22c1 cc26 3c42
00000140: f452 02bf de2d 5441 d9fb 22bc 3cef 7440
00000150: 237f 1abe fcb7 6abe d7da 30bd ed2d f1bf
00000160: 55ae e0be 7c27 a141 9d25 ae42 cab7 dbbd
00000170: ae45 d041 3300 c4be 13af a6bd 600f e2bf
00000180: 42ff 8641 35bd 27be 1013 253f e23e 0cbe
00000190: 2442 17bd 57c9 d43c 9f76 93be e646 26bd
000001a0: f502 e140 eff1 5cbe 391e 42be 3c16 b4ba
000001b0: e287 c240 bde9 4b3f 0cc1 c3bd fc7a 88bd
000001c0: 22e4 bebe 7053 0ebe 5ecf 3ebe e459 8341
000001d0: 94d9 1840 63e0 84be 54f6 be42 bbec 1741
000001e0: 0614 71bd 6746 55be a5ac 14be b888 2341
000001f0: b08c 35be c282 95be 8149 3841 bbe5 103f
00000200: 811d bf40 e343 d341 416d 31be 41ba 66bd
00000210: 689f 13be 8eb1 9abe 57d4 1fbe 5f32 e6bd
00000220: 2c12 0940 2c7b af41 29b0 d1bf 9ed5 2741
00000230: 2334 ac3f 9796 dfbd 7d0c e0bd f94a 26be
00000240: f7b1 54be 670e 89be 5182 67be 5332 fe40
00000250: e734 cf41 c4a4 28be 8fd1 ffbd 1e51 c73f
00000260: ace6 5abe 653d 9abe 66cd c5be d6cf 0940
00000270: 093d 40be 546c adbe 5566 41be a6bf 5841
00000280: d2db 8c3f e03c 7dbe 7b51 f541 ada1 8540
00000290: 56a7 abbc 3390 87be a1cf 1941 0c10 93bd
000002a0: 92b2 983f 7585 763c 1045 1741 cdec 25be
000002b0: f736 1f41 5916 bb40 dc11 8742 d0e6 8dbf
000002c0: 25d7 2c41 5e70 72bd 23c0 2fbe a6f0 2341
000002d0: ebb9 5b41 bad0 d23e fd35 3ebe 6c6b b542
000002e0: c8a7 efbd a441 4141 68dc 8041 c3c9 9dbe
000002f0: e115 e641 0ebd c3bc f8e9 cf40 ab73 52be
00000300: a6ff 9541 a25b 56be 6d25 d7bd 9038 0341
00000310: fbbc afbe 86d9 ddbe 89a0 ad41 2680 5240
00000320: f60a a0bd c052 4abe 7c9e 2440 36b8 4a40
00000330: acf6 26be 5b10 0c40 3ba3 fa3f ee67 7141
00000340: 3fe1 22bc 6fc5 70be d48e b7bd 1ee6 3bbe
00000350: b7ba 723f c502 aec0 0076 22be a2a0 d3be
00000360: cc82 6ebe 6f44 56be 5658 2bbd 8339 4f40
00000370: 1b52 b6be 33bb 9141 b2aa 38be 9cc2 dfbd
00000380: 4860 ce41 0c9c 2641 fa10 4941 d96a 95bd
00000390: 6073 3042 8032 83c0 b03c 32be 0fad f9bc
000003a0: 585b 6b41 8ff4 4641 2ad7 9abe 038d fcbd
000003b0: 3cf7 0141 d566 4cbe c42d 4f41 510a b9bd
000003c0: cec2 7fbe 64fb 6841 7ab4 0740 e1e8 7cbe
000003d0: a124 813c 4681 d5be 6cdb 26be e7df df3f
000003e0: ce1e f9bc a54e 35be d8b1 93be e65a 8ebc
000003f0: f4f2 e83e 3a63 9cbd e999 da41 c36d 0c42

fc3.weight f4 [4, 512]
0.008672567 4.4055467 0.90120083 -0.07324687 0.039553896 -18.092245 1.1541028 0.023848532
0.03195109 -0.067760944 33.732243 0.052815195 0.0371926 5.032457 2.3180385 -16.931242
0.00027878897 -0.040753122 -0.19976412 0.28707448 0.0037894375 27.085947 0.67388606 -0.19375837
1.28041 -59.847633 1.9587777 19.598928 27.463356 0.055014282 0.15686671 -3.459328
11.788302 0.012257279 0.43819025 -0.0021595145 1.9211181 -0.10221428 0.026661878 42.822193
-4.3002256e-05 -0.024864826 0.038558457 0.13363434 0.24318759 3.7511961 -0.0075091403 2.0860167
-49.26652 -0.013333267 0.017604306 0.06973565 -0.016381953 44.24872 -48.08927 -3.1891963
-2.8972678 -0.0046385895 -0.11735715 63.887646 0.005567592 -0.034595445 0.00984938 0.0033450492
0.5615153 0.120797925 -0.08198472 1.1016998 -3.5858448 0.022825314 -6.4185667 -0.055849448
0.13904129 0.023352766 3.186129 -0.012271877 3.366414 3.7885966 -19.721758 26.580103
-0.107307106 23.923077 -0.0077248295 -2.5746803 -0.036574014 -0.11331551 -0.005878006 -2.583622
0.10308973 50.931152 17.478298 0.004772501 55.297173 -0.21135637 -0.08133457 -2.496112
26.527542 -0.1713407 3.795923 0.41966328 1.3820637 -1.7829666 0.06943461 -0.038908914
14.421968 0.03926099 -0.0300201 0.016478539 2.2840066 1.1939436 -0.1774459 0.019126019
-0.036358878 -0.15404256 0.016032571 69.84161 -0.70957947 0.06430775 33.965916 8.980472
0.026116138 0.13418439 0.0028342174 -2.8683167 -0.091960885 -0.087808646 4.1535735 2.8721979
-6.6530976 -24.598555 0.06025361 0.013561591 -0.06640981 0.028492164 -0.08891485 -0.011117416
-4.501112 58.4012 6.7635975 7.318529 -1.8936089 0.034224976 0.01084881 -0.06772486
0.09150228 0.0024848292 0.103809945 4.8241577 -17.310482 -0.04994185 -0.1053847 1.5146037
-0.006590207 0.0049120514 -0.07261281 2.2390814 0.057327352 -0.09441634 0.005063256 -37.52045
-52.34023 -0.11781293 54.000874 -4.906337 -0.0127066225 0.05733325 67.41146 0.05510003
1.7342392 0.013568093 -67.24834 -0.112048276 2.718863 0.58322686 39.27896 0.4464028
9.983426 -0.037661392 -0.021756148 48.84427 34.869892 0.20282754 -0.019893706 -8.193851
0.0027185956 19.578917 -61.171543 0.146488 -28.428843 0.0075208372 4.6337814 0.0034558116
92.27733 0.03708822 0.04880458 17.802715 0.10558588 -0.13455774 -12.882385 -50.2836
-0.037436448 -0.1656318 1.0378088 15.7369585 0.038683668 0.7152007 3.5127935 -37.711132
0.0014688665 -0.014006599 0.052401822 -0.05803053 0.7428676 35.390427 0.011500155 -0.083039865
-0.0328646 -0.15584216 1.3254685 -22.072954 -0.06621003 46.657738 0.0070435135 -0.036103286
34.671333 -33.973602 79.145226 0.030370222 41.642952 -3.5507448 -0.009514914 0.049327612
43.805656 70.92306 -0.36838654 0.10426058 55.00395 0.13350642 73.08864 -0.014471577
-0.10963369 61.544533 -54.993153 0.018848835 -0.046897016 -0.12006282 0.028685914 -8.10095
0.045654684 0.078090064 0.04333542 -0.0059273695 0.76740986 -0.041291963 30.915623 47.203716
00000000: 6217 0e3c 3dfa 8c40 19b5 663f 7402 96bd
00000010: 4403 223d ebbc 90c1 a4b9 933f ff5d c33c
00000020: 25df 023d 40c6 8abd d1ed 0642 bf54 583d
00000030: 4557 183d e309 a140 be5a 1440 2f73 87c1
00000040: 6c2a 9239 bfec 26bd f78e 4cbe 6dfb 923e
00000050: 3658 783b 05b0 d841 cc83 2c3f 9868 46be
00000060: 7ae4 a33f fa63 6fc2 3ab9 fa3f 9bca 9c41
00000070: f4b4 db41 a856 613d aba1 203e a165 5dc0
00000080: e39c 3c41 c1d2 483c 795a e03e a486 0dbb
00000090: 33e7 f53f b855 d1bd 036a da3c ed49 2b42
000000a0: 525d 34b8 52b1 cbbc 79ef 1d3d 71d7 083e
000000b0: 2b06 793e 9913 7040 3c0f f6bb 4c81 0540
000000c0: eb10 45c2 c673 5abc e836 903c 91d1 8e3d
000000d0: 7233 86bc b0fe 3042 6a5b 40c2 cb1b 4cc0
000000e0: d66c 39c0 4fff 97bb f258 f0bd f38c 7f42
000000f0: 5970 b63b f4b3 0dbd 4b5f 213c 9d38 5b3b
00000100: 77bf 0f3f e764 f73d 9be7 a7bd 8004 8d3f
00000110: 7b7e 65c0 27fc ba3c e664 cdc0 64c2 64bd
00000120: d760 0e3e 4d4e bf3c 8ae9 4b40 fc0f 49bc
00000130: 5473 5740 5e78 7240 29c6 9dc1 0da4 d441
00000140: d4c3 dbbd 7662 bf41 9120 fdbb 90c7 24c0
00000150: a2ce 15bd f611 e8bd 4a9c c0bb 105a 25c0
00000160: b520 d33d 80b9 4b42 8ed3 8b41 a462 9c3b
00000170: 4e30 5d42 ce6d 58be bd92 a6bd 4dc0 1fc0
00000180: 6838 d441 f073 2fbe 67f0 7240 1bde d63e
00000190: 77e7 b03f 4038 e4bf bc33 8e3d f45e 1fbd
000001a0: 62c0 6641 22d0 203d b6ec f5bc 00fe 863c
000001b0: 2a2d 1240 25d3 983f 61b4 35be 2bae 9c3c
000001c0: 0ced 14bd 55bd 1dbe bd56 833c e8ae 8b42
000001d0: 00a7 35bf c8b3 833d 19dd 0742 03b0 0f41
000001e0: 83f1 d53c a267 093e 47be 393b 8092 37c0
000001f0: fd55 bcbd 05d5 b3bd 13ea 8440 17d2 3740
00000200: 2de6 d4c0 d7c9 c4c1 7dcc 763d 6f31 5e3c
00000210: de01 88bd 6668 e93c fd18 b6bd d325 36bc
00000220: 1c09 90c0 d49a 6942 646f d840 6431 ea40
00000230: c761 f2bf 7d2f 0c3d 35bf 313c 55b3 8abd
00000240: 8c65 bb3d 84d8 223b 4f9a d43d 805f 9a40
00000250: de7b 8ac1 d38f 4cbd efd3 d7bd 89de c13f
00000260: aaf2 d7bb 46f5 a03b 06b6 94bd 1c4d 0f40
00000270: 16d0 6a3d 5b5d c1bd abe9 a53b f114 16c2
00000280: 655c 51c2 e847 f1bd e500 5842 b600 9dc0
00000290: 702f 50bc 45d6 6a3d abd2 8642 92b0 613d
000002a0: 8dfb dd3f b54c 5e3c 267f 86c2 9179 e5bd
000002b0: da01 2e40 5b4e 153f a81d 1d42 e88e e43e
000002c0: 1dbc 1f41 d542 1abd f339 b2bc 8860 4342
000002d0: c57a 0b42 06b2 4f3e 20f8 a2bc 041a 03c1
000002e0: 772a 323b 9fa1 9c41 a9af 74c2 f300 163e
000002f0: 456e e3c1 5b71 f63b f047 9440 e67a 623b
00000300: fe8d b842 d1e9 173d 50e7 473d f66b 8e41
00000310: 693d d83d 81c9 09be 401e 4ec1 6822 49c2
00000320: f656 19bd 629b 29be ebd6 843f 95ca 7b41
00000330: c472 1e3d 6517 373f 9cd1 6040 33d8 16c2
00000340: fb86 c03a ef7b 65bc 4ba3 563d 6cb1 6dbd
00000350: 922c 3e3f cc8f 0d42 256b 3c3c ce10 aabd
00000360: 089d 06bd 1695 1fbe f4a8 a93f 6995 b0c1
00000370: 2099 87bd 86a1 3a42 46cd e63b 0ae1 13bd
00000380: 72af 0a42 f8e4 07c2 5b4a 9e42 f9ca f83c
00000390: 6292 2642 673f 63c0 71e4 1bbc c00b 4a3d
000003a0: fe38 2f42 9bd8 8d42 299d bcbe 9286 d53d
000003b0: 0b04 5c42 e8b5 083e 622d 9242 311a 6dbc
000003c0: a187 e0bd 9a2d 7642 fdf8 5bc2 df68 9a3c
000003d0: 1617 40bd 7fe3 f5bd b9fe ea3c 7e9d 01c1
000003e0: 6800 3b3d afed 9f3d 7b80 313d 613a c2bb
000003f0: f974 443f c321 29bd 3253 f741 9bd0 3c42

fc3.bias f4 [4]
66.210014 80.813126 81.8058 37.278744
00000000: 876b 8442 52a0 a142 929c a342 6f1d 1542
